gcn_model.pth (torch, 38108 bytes, 5 tensors)

conv1.bias f4 [64]
000000 00 00 00 00 1a 8a 6f 38 eb 8b 3b b7 1b 80 ec a1
       0.0 5.7110658e-05 -1.1178646e-05 -1.6025891e-18
000010 00 00 00 00 c9 97 b5 b7 c6 25 cc 38 dd e9 a2 b8
       0.0 -2.1647562e-05 9.734514e-05 -7.7683224e-05
000020 ae 73 54 a3 54 23 26 39 e4 a2 03 38 58 96 93 38
       -1.1517039e-17 0.00015844154 3.1384538e-05 7.03751e-05
000030 df f0 0e b8 99 5e 19 38 76 22 85 38 19 a2 41 b7
       -3.4079767e-05 3.6566144e-05 6.348353e-05 -1.1541438e-05
000040 00 00 00 00 07 32 be a2 a8 7d 8e 38 ba ef 0a b9
       0.0 -5.155257e-18 6.794493e-05 -0.0001325001
000050 67 3d be 38 76 64 9e b8 30 8d 82 38 f8 0d 92 38
       9.071343e-05 -7.5527394e-05 6.225181e-05 6.9644244e-05
000060 00 00 00 00 00 00 00 00 bb b0 ef b7 27 d8 46 38
       0.0 0.0 -2.8573317e-05 4.7408186e-05
000070 12 cf 5a b9 33 3b 07 38 99 07 d9 38 c5 b2 21 39
       -0.0002086724 3.224164e-05 0.000103487815 0.00015420753
000080 00 00 00 00 00 00 00 00 00 00 00 00 2f 4d 45 37
       0.0 0.0 0.0 1.1760086e-05
000090 6a 9d 19 38 b1 9a 2b b8 00 00 00 00 f8 7e 95 38
       3.6624646e-05 -4.0913645e-05 0.0 7.1285234e-05
0000a0 87 3c 2b b7 00 00 00 00 00 00 00 00 00 00 00 00
       -1.0206487e-05 0.0 0.0 0.0
0000b0 02 9d c3 b8 3e d5 96 b5 00 00 00 00 b1 28 01 39
       -9.3275696e-05 -1.1237933e-06 0.0 0.00012317557
0000c0 9e d8 47 23 ae a3 45 a3 c1 f8 c9 22 44 a3 92 38
       1.0833682e-17 -1.0714052e-17 5.4744538e-18 6.992233e-05
0000d0 09 7e 51 b6 13 55 d2 36 48 7f 5d 37 00 00 00 00
       -3.121679e-06 6.2683916e-06 1.32022615e-05 0.0
0000e0 c9 a0 ef b8 00 00 00 00 03 95 45 a2 00 00 00 00
       -0.00011426357 0.0 -2.6777365e-18 0.0
0000f0 0d da 96 b7 00 00 00 00 00 00 00 00 00 00 00 00
       -1.7982931e-05 0.0 0.0 0.0

conv1.lin.weight f4 [64, 3]
000000 af 4c 3e be 62 90 59 be 3e cd 84 3e 76 71 52 bd
       -0.1858394 -0.21246484 0.25937837 -0.051377736
000010 da ce 12 3e d4 0e 84 bd ae f2 b5 bd 1b e9 66 3e
       0.1433672 -0.06448141 -0.08884178 0.2254986
000020 2e ff 85 bd 29 0d 75 be 96 4f 15 3e de ef 3c 3e
       -0.06542812 -0.23930801 0.14581141 0.18450877
000030 4a 97 aa bd f2 68 4d be 40 96 f5 bb 97 6f bf 3b
       -0.08329637 -0.20059565 -0.007494718 0.00584216
000040 c1 7b 38 3e 96 f3 a7 3d 1c 31 1d 3e d8 37 4b 3d
       0.18015958 0.08200757 0.15350765 0.049613804
000050 6a 36 3c bd 98 05 b2 3d 7b 49 38 be da 95 86 bc
       -0.04595033 0.08692473 -0.1799678 -0.016428877
000060 6f 4d 32 be 68 17 85 3e 20 db 22 bd 35 c5 32 3e
       -0.17412351 0.2599442 -0.039759755 0.17458041
000070 9f f2 6f 3d d1 4f 56 be cc d0 37 bd c9 eb c0 3d
       0.05858099 -0.20928885 -0.04487686 0.094199724
000080 f7 94 01 be d7 6c 19 3e 18 c0 62 bd 9e 1e 34 be
       -0.12654482 0.14982925 -0.055358976 -0.17589805
000090 cb bc 85 3e eb 64 df 3d f0 68 80 be 2e 0f 71 3d
       0.261206 0.109079204 -0.2508006 0.058852367
0000a0 cd dd 26 3e 36 bd 67 3e fb 3b f7 3d 27 02 a0 bc
       0.16295548 0.22630772 0.12071987 -0.019532276
0000b0 11 9a 87 3e 2a a8 04 3d 07 51 84 bd 15 31 d2 3d
       0.2648473 0.032386936 -0.06460767 0.10263268
0000c0 52 2d 3a be 00 64 ce 39 00 e2 86 3d 65 36 21 be
       -0.18181351 0.00039365888 0.06586075 -0.15743406
0000d0 f6 88 48 3e 08 fb 90 3e af 01 06 3e 61 e0 d5 3d
       0.19583496 0.28316522 0.1308658 0.104431875
0000e0 03 68 5f be 8b bd d4 3d ed 25 3b 3e dc 40 57 3e
       -0.21817021 0.10387715 0.18276186 0.21020836
0000f0 4a 38 97 bc 81 53 5c 3e fc c8 e1 3d 6a 07 88 3e
       -0.018459458 0.21516229 0.11024663 0.26568156
000100 d7 0c 73 be c4 78 6f 3d 43 8d 50 3d 23 9e 81 be
       -0.23735367 0.05846478 0.050915968 -0.2531596
000110 57 ce 38 3e 49 40 93 3e ba 68 1d 3e 87 7a f6 bd
       0.18047462 0.28759983 0.15371981 -0.12035089
000120 50 ca 57 be 28 7a 15 bd 2e 9f 83 be 40 6a 8f bc
       -0.2107327 -0.03649345 -0.25707382 -0.017506719
000130 d2 53 dc bd fe f0 1b 3e 19 1a de bb 6e f8 96 3d
       -0.10758175 0.1522865 -0.0067780134 0.07371603
000140 d3 9a 01 3e 54 1d 3e 3e e4 f0 82 be 24 73 70 3e
       0.12656717 0.18565875 -0.2557441 0.23481423
000150 8f 46 14 3e 76 b9 3d 3d 28 ce 5c be 18 a2 40 3e
       0.14480041 0.046319447 -0.21563017 0.18811834
000160 ce 85 15 3e 7b 7f 17 3e 49 38 a1 3d 01 18 94 3d
       0.14601824 0.14794724 0.07872064 0.07231141
000170 59 1f 76 3e b2 91 0d 3e 8b 45 26 be d4 b7 2e 3e
       0.24035396 0.1382511 -0.16237466 0.17062312
000180 22 36 7d be 65 d9 50 be 70 ac 7a 3d 7a 70 47 be
       -0.24727681 -0.2039543 0.061199605 -0.194765
000190 40 5d dc 3c 70 04 9c 3d 62 57 47 be af 6e 29 be
       0.026899934 0.07618034 -0.19466928 -0.16546129
0001a0 0c 72 24 3e aa cf 72 3d 5e 76 1a 3e 1f f6 29 3e
       0.1605913 0.059280075 0.15084216 0.16597794
0001b0 61 9e cd 3d 4b ba 94 be c7 bc 5d 3c f7 07 af 3d
       0.10039974 -0.2904838 0.013533778 0.08546441
0001c0 65 de 92 be fc ee 89 be e0 82 54 bc 1a 1f 69 be
       -0.286853 -0.26940143 -0.012970656 -0.2276577
0001d0 ec 19 6b be 08 20 01 3e ee 12 e0 3d 2e db 81 3d
       -0.22959107 0.12609875 0.109411106 0.06340633
0001e0 2d 92 1c 3d eb 6a 67 be 60 fc b0 3d d8 96 ee bd
       0.03822534 -0.2259938 0.08641887 -0.11649865
0001f0 58 0c 67 be 20 4a 22 bc a8 f6 33 bd c4 a6 be bd
       -0.22563303 -0.009905368 -0.0439364 -0.09309152
000200 c8 e0 99 3d 10 04 d4 3c e7 d5 98 be 0a 65 e7 bd
       0.07513577 0.025880843 -0.29850695 -0.112985685
000210 be aa 0e 3d 03 a3 52 3e 3a 00 96 be 28 c8 7b bd
       0.0348308 0.20569997 -0.29297048 -0.06147018
000220 31 1a 1e 3e 06 c9 f9 3d b2 ca e2 bd d7 1c 10 be
       0.15439679 0.12196545 -0.11073817 -0.14073502
000230 8e b2 34 3e 2d 72 20 3e c3 ee 4a be 85 55 dd bd
       0.17646238 0.15668555 -0.19817643 -0.10807327
000240 0f 6d 32 be 62 79 48 3e da 7a 52 be 60 c2 3a bd
       -0.17424415 0.19577554 -0.20554677 -0.045595527
000250 30 ce 84 3d 12 5f ec bd 70 44 47 be ca 25 98 3e
       0.0648464 -0.11541571 -0.194597 0.2971633
000260 05 5e 8c be f9 c7 86 3e 07 ab e5 3c d1 7d 1c be
       -0.2741548 0.26324442 0.028035654 -0.1528237
000270 d8 a3 33 3e 81 89 97 3e 7e ac 2b be fe a3 ae 3d
       0.1754297 0.29597095 -0.1676502 0.08527373
000280 04 31 4f 3e 9c 44 a7 bd 42 ba 04 bd 9e 8c 88 3d
       0.20233542 -0.08167383 -0.03240419 0.066674456
000290 61 0c 9d bd e4 07 8e bd 50 97 90 bd e4 23 1c 3e
       -0.07668377 -0.06935099 -0.070601106 0.15248066
0002a0 73 78 5e 3d ea ad e9 3d f4 70 95 3d 0c a0 d4 bd
       0.054314088 0.114101246 0.07296935 -0.10382089
0002b0 94 ed 43 be 60 30 71 bc cf ca 8a be ae c6 30 3e
       -0.19133598 -0.014721006 -0.27107856 0.1726329
0002c0 74 ca 73 3e db 7b 67 be 58 b5 83 be f0 19 19 3d
       0.23807698 -0.22605841 -0.25724292 0.03737825
0002d0 07 12 db 3d f9 e3 85 be ac c5 f3 bd 92 59 50 be
       0.10696798 -0.26150492 -0.11902937 -0.20346668
0002e0 a0 36 3b bc 98 b4 da bd 9d d6 20 be a2 26 b0 bd
       -0.011426598 -0.10678977 -0.15706868 -0.086011186
0002f0 18 a0 e9 3d 94 df 8c be ec c4 81 3d 11 93 26 be
       0.114074886 -0.27514327 0.06336388 -0.16267039

edge_scorer.0.weight f4 [64, 132]
000000 d0 a9 f3 bc d1 79 a4 3c ad 8f ab 3d 41 eb 37 bd
       -0.029744059 0.020077618 0.08377013 -0.04490209
000010 98 46 47 3d 9c a1 0a bd 86 c2 05 3d a5 b3 16 bc
       0.048651308 -0.03384553 0.032656215 -0.009198104
000020 69 19 71 bd 0e 7f b1 3b f4 00 ca bc a4 a1 94 bc
       -0.058862124 0.0054167574 -0.024658658 -0.018143483
000030 66 44 b2 3c 38 09 88 bd 37 cb 11 bc 2f 73 99 bb
       0.02176113 -0.06642383 -0.008898548 -0.0046829204
000040 f0 05 6b bd 50 71 b3 3c 82 8b 4c 3d 74 96 01 3d
       -0.05737871 0.021904618 0.049937733 0.031637624
000050 a5 01 15 3d ee 1d 87 3d ff 61 4a bd d6 57 17 bd
       0.03637852 0.065975055 -0.049409863 -0.036949
000060 cc 13 1d 3d da 68 b0 bd 76 6d 8a 3c 80 35 43 bc
       0.038348958 -0.08613749 0.016897898 -0.011914611
000070 10 cc 82 3d 4b 5a da bc 58 1e fa 3b b7 b2 10 3d
       0.06386578 -0.026654383 0.007633012 0.035326686
000080 f9 b3 21 bd e8 b3 66 3d 7c 28 8d 3d b9 e5 4b bd
       -0.039478276 0.056323916 0.068924874 -0.049779627
000090 17 6c 65 3d 04 19 b1 bd 2a eb 8b 3d be 81 06 bc
       0.056011286 -0.086473495 0.06831963 -0.008209644
0000a0 64 27 56 3d 80 ec 10 3d 6e a1 82 bd 72 64 81 3d
       0.05228366 0.035381794 -0.063784465 0.063179865
0000b0 7c 25 d8 3c 06 e2 15 3c 82 a0 97 3d e8 99 52 3d
       0.026385061 0.0091481265 0.07403661 0.051416308
0000c0 80 90 95 3d e8 4f 0d 3d 48 b7 2e bc 2a 25 74 3d
       0.07302952 0.034500033 -0.010663815 0.059605755
0000d0 00 37 f8 bc 12 7d 91 bd 16 19 7e bd c4 80 96 3c
       -0.030299664 -0.071039334 -0.062035643 0.018371947
0000e0 4d b1 83 bd 90 fc 0a bc f0 f9 9f 3d 90 21 7a 3d
       -0.06430302 -0.008483067 0.07811344 0.061067164
0000f0 fb a4 a4 3d 2a 79 9d bd 14 88 38 3d c0 10 be bc
       0.0803928 -0.07689126 0.04505165 -0.023201346
000100 8b 95 93 bd 3f 8f 27 3d 80 1e 09 bd 56 0d b0 bd
       -0.072062574 0.040908094 -0.033476353 -0.08596294
000110 6c bf 2d bd 23 5a 2c 3d c7 6a aa 3d ef a1 a1 bc
       -0.042418882 0.04207815 0.083211474 -0.019730536
000120 b8 22 51 3d 68 69 9d bd 22 7f 9c 3d af e6 c9 bb
       0.0510585 -0.0768612 0.07641436 -0.006161533
000130 e3 f5 02 3d 68 3c 15 3d 5b a6 99 3c 03 c2 d4 3c
       0.031972777 0.03643456 0.018756082 0.025971418
000140 f4 a7 1c 3d 6c 22 3e bd b6 b9 0c bd e9 82 a0 bc
       0.03824611 -0.046419546 -0.034356795 -0.019593673
000150 e5 38 32 3d 56 5f 4b bd 9c 46 79 ba 30 8a ac 3d
       0.04351129 -0.049651466 -0.0009509118 0.08424795
000160 f8 60 52 3d 72 d9 8d bd 7f 29 2f bd a6 c9 11 bd
       0.051362008 -0.0692624 -0.042764183 -0.035592698
000170 d2 d6 ed 3c 70 5b d0 bc 1b 8d 2e bd 2a e7 90 3d
       0.029033098 -0.025434226 -0.042615037 0.07075341
000180 7c 26 c3 3c f8 23 6b 3d 20 05 52 bd 74 c6 3e bc
       0.023822062 0.05740735 -0.05127442 -0.011643995
000190 30 2e aa bd 56 28 af 3d 06 44 a2 bd dc 5b 7a 3d
       -0.08309591 0.08552615 -0.07923131 0.06112276
0001a0 e9 e3 a6 bd c8 01 c5 bc 73 3f a3 bd b8 f1 37 bc
       -0.08148939 -0.0240487 -0.07971086 -0.011227064
0001b0 65 88 4c bd e6 b4 a1 3d 44 55 3d 3d af 7c 32 bd
       -0.049934763 0.07895832 0.046223894 -0.04357594
0001c0 78 c4 30 bd a4 b5 52 3d 1e 59 a7 bd 10 6f c9 bc
       -0.043156117 0.051442757 -0.08171295 -0.024589092
0001d0 0c e7 61 3c 7f e4 19 3d ca 90 7b 3b 08 66 42 3d
       0.013787996 0.037571426 0.0038385862 0.047460586
0001e0 13 46 9b 3c 87 1e 80 bd 92 17 aa 3d f2 05 06 3d
       0.018954312 -0.06255823 0.08305277 0.032720514
0001f0 ee 71 37 bd d6 50 81 3d 08 69 19 3d ee dd 85 3d
       -0.044786386 0.06314246 0.03745368 0.0653647
000200 ba 08 e3 bc 3e 0d 01 3d 2c 03 97 3d 61 2f 5a 3d
       -0.027714122 0.03150677 0.07373652 0.05326784
000210 40 86 a5 bb 94 d9 fe bc 4e f7 7f bc 3a 41 85 3d
       -0.0050514042 -0.031109609 -0.015622927 0.065065816
000220 6c fb 97 3d 87 ae 98 bd 92 56 97 bd d7 81 a6 bc
       0.07421002 -0.074551634 -0.07389559 -0.020325584
000230 c0 7d dd 3c f4 27 aa bd cc c2 60 3d 33 70 ac 3d
       0.027037501 -0.08308402 0.054873273 0.08419838
000240 e7 ed c5 bc a6 0e 4d bd 1f 59 af 3d fb a0 7b 3c
       -0.024161292 -0.050062798 0.085619204 0.015358205
000250 6c 12 2e 3d df cc ac bd fe b4 96 3d 04 9e 97 3d
       0.042498037 -0.084375136 0.0735874 0.07403186
000260 22 80 53 3d 87 14 1d 3d 69 e9 69 3d fe a4 7e bd
       0.05163587 0.038349655 0.057107363 -0.062169068
000270 0e 18 a8 3d a0 2d 9b 3d ae eb 7a 3d 7e fa 81 bd
       0.08207713 0.07577062 0.061259918 -0.06346606
000280 80 41 ab 3d 48 a1 b7 3b 9f c9 ad 3d 94 94 38 bd
       0.083621025 0.005603943 0.08485722 -0.04506357
000290 6c c1 a2 3d c0 ce 94 3a 72 bd 99 bd 9d 37 69 bd
       0.079470485 0.001135312 -0.07506837 -0.056937803
0002a0 46 8b 8e 3d 01 8f 5e bc 81 3b a6 bd 5d 3b e2 bc
       0.06960158 -0.0135838995 -0.08116818 -0.027616197
0002b0 9b 37 a9 3b ac 99 8f 3d be 20 9b 3d 6c 4c 8b 3c
       0.0051640994 0.070117325 0.075746045 0.017004214
0002c0 77 7e 6e bd 34 d3 05 3d f0 9a 31 bc 8a 51 9c bd
       -0.058226075 0.032672122 -0.010840163 -0.0763274
0002d0 68 a9 45 bd 40 9c a1 3d 08 48 a1 3d f5 d3 32 bd
       -0.04825726 0.078911304 0.07875067 -0.04365917
0002e0 a6 b4 26 bd 24 b4 15 bd e4 06 8a 3d 04 c4 8c 3d
       -0.040699624 -0.03654875 0.067395955 0.068733245
0002f0 11 6c 67 bd fe f6 ab 3d a9 10 ac bd cc 9e 4a 3d
       -0.056499545 0.083967194 -0.08401615 0.049467847
000300 c9 a1 6b bd b6 97 a2 3d d4 c2 5e bd 83 a1 43 bd
       -0.057527337 0.07939093 -0.05438502 -0.04776145
000310 2c 7d 46 bd 3c 21 2d 3d 47 d6 c3 3b 66 27 1b bd
       -0.048459217 0.042268023 0.0059764716 -0.03787937
000320 60 62 70 3b 56 57 1b bd aa e7 68 bd cb b8 a0 bd
       0.003667973 -0.037925087 -0.056861557 -0.078477465
000330 56 ba d0 bc 5c 68 7b 3d 59 18 2d 3d 7f b8 9d 3d
       -0.025479477 0.06137882 0.042259548 0.077012055
000340 84 e8 0b bd c7 55 35 3d 0f c9 9b bd 3c 4f 3d bc
       -0.03415729 0.044271257 -0.07606708 -0.0115545355
000350 40 73 df 3b dc 6c e2 3c 46 c7 5b bc 12 1c 38 bd
       0.006819159 0.027639799 -0.01341421 -0.044948645
000360 fb 8b 9c ba 77 df 91 bb e2 02 a3 3d 89 cc 33 3c
       -0.0011943573 -0.004451688 0.07959534 0.010974058
000370 ed 01 0f bd ec b9 87 bc cf 1a 99 bd c9 9c 00 3d
       -0.034913946 -0.016568147 -0.074758165 0.031399522
000380 5c db 27 3d e4 0a d3 3b 02 75 5c 3d 12 a6 88 bc
       0.04098068 0.0064405072 0.053822525 -0.016680751
000390 82 24 00 3d 6d 2c 7f bd 64 8e b5 3c 01 5b ab 3d
       0.031284817 -0.062298227 0.022162624 0.08366967
0003a0 2c 52 37 3d 97 4c a7 3d 80 0c 94 3c 4c 90 7d 3d
       0.0447561 0.08168905 0.018072367 0.06190519
0003b0 5f d1 ab 3d 5a e6 1f bd 88 63 4a bc ab 3d 7e bd
       0.08389544 -0.03903804 -0.012352832 -0.06207053
0003c0 3d 61 e7 3a 1b 4d ab 3d 50 c3 01 bc 35 37 ae 3d
       0.0017652881 0.08364316 -0.007920101 0.08506624
0003d0 74 37 3a 3d c3 a8 91 bd 67 04 92 bd 5a 4a 29 3c
       0.04546304 -0.07112267 -0.07129746 0.010332668
0003e0 4c a2 94 3c 46 81 58 3d 97 60 82 3c 73 bf 37 bd
       0.018143795 0.05285766 0.015915198 -0.044860315
0003f0 8c 51 81 3d b8 28 3d 3c b5 f1 8a bd f0 e0 ad 3b
       0.06314382 0.011545353 -0.06784383 0.0053063557

edge_scorer.0.bias f4 [64]
000000 f5 1c ad bd 4f 07 9f bd 7a bd 96 ba 08 30 98 bd
       -0.08452789 -0.07765066 -0.001150056 -0.07431036
000010 8d 0d 70 bb 33 b9 43 3d f4 2a 3c 3d 70 46 ac 3d
       -0.003662917 0.04778404 0.0459394 0.084118724
000020 a3 72 98 3d e8 b8 2a bc 55 7a 7b bd 24 da 0b 3d
       0.0744374 -0.010420062 -0.06139596 0.034143582
000030 f8 22 a4 3d e9 ec bb bc 1f 93 a8 bd b6 e5 14 bd
       0.08014482 -0.022940116 -0.08231186 -0.036351882
000040 5d be a2 3d 4f 6f 23 bd 80 cb c1 3c a0 98 1b bc
       0.07946465 -0.039901074 0.023656607 -0.009496838
000050 13 14 47 3d a6 c9 61 bd 8c b6 36 bd 5d 18 4f bd
       0.04860313 -0.055123948 -0.044607684 -0.050560344
000060 10 28 87 bc b7 b9 24 bb b0 64 31 3c ba c5 40 3c
       -0.016498595 -0.0025135109 0.010827228 0.011765892
000070 3b 24 98 3d da 8a a6 3d 11 07 1f 3d c9 0e 18 bc
       0.074287854 0.081319526 0.0388251 -0.009280869
000080 08 d7 1d 3d 8c c7 34 bd 09 0a 34 3d 08 16 6c bd
       0.038535148 -0.044135615 0.043954883 -0.057638198
000090 e6 7e 2f 3d 23 59 d4 bc 2f 87 a8 3b e8 9b 6c 3d
       0.04284563 -0.02592141 0.0051430683 0.05776587
0000a0 2b 15 64 bd 1b 58 8e bd c2 a0 32 bd c4 0c 98 3c
       -0.05568425 -0.069503985 -0.04361034 0.018560775
0000b0 19 e7 91 bd 42 11 a5 3d b8 cb fa 3c 84 81 27 3d
       -0.071241565 0.08059932 0.030614719 0.040895
0000c0 c6 0a 7d bd ce 43 02 bd f0 de 09 3c e8 13 04 3d
       -0.061777852 -0.031802945 0.008414969 0.032245547
0000d0 cc a0 85 bd 02 27 ee 3b a6 e9 b1 3d 04 97 86 bd
       -0.0652481 0.0072678337 0.08687143 -0.06571773
0000e0 25 03 34 3d 32 53 85 3d fc 3b 0f 3d 60 0f a3 bd
       0.04394831 0.06510009 0.034969315 -0.07961917
0000f0 c2 59 9f 3d d7 c3 4f bd 49 f8 b1 3c 17 5a 32 3d
       0.07780792 -0.050723877 0.021724837 0.043542948

edge_scorer.2.weight f4 [1, 64]
000000 c2 12 d4 3d 0e 56 26 3e 39 4a ad bc e8 61 61 bd
       0.1035514 0.16243765 -0.021153556 -0.05502501
000010 7a a8 c3 bc 3c 56 d8 bb ca ef b4 bd fa 8e ed bd
       -0.023884047 -0.006602077 -0.08834799 -0.11599536
000020 97 d6 cd 3d e0 03 1a bd d0 a3 ff bc e8 48 2f 3d
       0.100506954 -0.03760135 -0.031206042 0.04279414
000030 68 54 46 3d 12 c9 17 3d 6b 99 fd 3d fe 0e fd bd
       0.04842034 0.03705699 0.12382778 -0.12356375
000040 f1 75 6f 3d 5a 3f 97 3c 70 e0 eb 3d e2 1c dc 3d
       0.058462087 0.018462826 0.115174174 0.107476965
000050 b4 c8 fd 3d 6c 36 5b 3d a0 14 a9 bc b6 db a6 bd
       0.12391797 0.053518698 -0.020639718 -0.08147375
000060 b4 c5 1b 3d f9 0b 53 bd 08 e1 ef bd 69 42 84 bd
       0.03803034 -0.05152509 -0.11712843 -0.06457979
000070 7a 10 10 3e 50 78 40 3c 14 32 87 3d 77 18 2d 3d
       0.14068785 0.011747435 0.066013485 0.04225966
000080 fc 0a f3 bd 00 8f 10 3c a0 37 54 bc c8 f6 a7 3c
       -0.118673295 0.008823156 -0.012952715 0.020503417
000090 ce 78 bf 3c ce 1c 04 3e f7 d6 b2 3d 5c 0f da 3d
       0.023373034 0.12901613 0.087324075 0.10647461
0000a0 07 55 e4 3b fe 15 d8 bd b4 c4 6f bd f4 77 83 bd
       0.006968144 -0.1055107 -0.0585372 -0.064193636
0000b0 01 49 65 3d 78 9a e9 3c 34 33 b4 3d 61 50 0b 3e
       0.055977825 0.02851604 0.08798829 0.13604881
0000c0 1f 8c 86 3d 9e 6b 52 3d 40 0a f7 3d de 10 db bd
       0.06569695 0.051372163 0.12062502 -0.106965765
0000d0 ea d7 1e 3e f9 00 95 bd ee 76 bb bd b6 2f 8c 3d
       0.15512052 -0.07275576 -0.091535434 0.06845038
0000e0 6a a5 84 bd 70 c9 e3 3d eb 2f 99 bc 98 a9 7d bd
       -0.06476863 0.111224055 -0.018699607 -0.061929315
0000f0 78 48 1e 3d 00 bc c5 bb ba f3 d6 bd 16 b4 f6 3d
       0.03864333 -0.0060343742 -0.10495706 0.120460674
